…
wandb: Syncing run vit_b_cifar_scratch_regularized
wandb: ⭐️ View project at https://wandb.ai/video-understanding/DeIT
wandb: 🚀 View run at https://wandb.ai/video-understanding/DeIT/runs/d693z1bx
Files already downloaded and verified
There are 48000 Train samples, and 2000 in the Dataset.
<class 'torch.utils.data.dataset.Subset'>
==========================================================================================
Layer (type:depth-idx)                   Output Shape              Param #
==========================================================================================
├─VisionTransformer: 1-1                 [-1, 1000]                --
|    └─PatchEmbed: 2-1                   [-1, 4, 768]              --
|    |    └─Conv2d: 3-1                  [-1, 768, 2, 2]           590,592
|    └─Dropout: 2-2                      [-1, 5, 768]              --
|    └─ModuleList: 2                     []                        --
|    |    └─Block: 3-2                   [-1, 5, 768]              7,087,872
|    |    └─Block: 3-3                   [-1, 5, 768]              7,087,872
|    |    └─Block: 3-4                   [-1, 5, 768]              7,087,872
|    |    └─Block: 3-5                   [-1, 5, 768]              7,087,872
|    |    └─Block: 3-6                   [-1, 5, 768]              7,087,872
|    |    └─Block: 3-7                   [-1, 5, 768]              7,087,872
|    |    └─Block: 3-8                   [-1, 5, 768]              7,087,872
|    |    └─Block: 3-9                   [-1, 5, 768]              7,087,872
|    |    └─Block: 3-10                  [-1, 5, 768]              7,087,872
|    |    └─Block: 3-11                  [-1, 5, 768]              7,087,872
|    |    └─Block: 3-12                  [-1, 5, 768]              7,087,872
|    |    └─Block: 3-13                  [-1, 5, 768]              7,087,872
|    └─LayerNorm: 2-3                    [-1, 5, 768]              1,536
|    └─Linear: 2-4                       [-1, 1000]                769,000
├─Linear: 1-2                            [-1, 100]                 100,100
==========================================================================================
Total params: 86,515,692
Trainable params: 86,515,692
Non-trainable params: 0
Total mult-adds (M): 260.04
==========================================================================================
Input size (MB): 0.01
Forward/backward pass size (MB): 0.76
Params size (MB): 330.03
Estimated Total Size (MB): 330.81
==========================================================================================
==========================================================================================
Layer (type:depth-idx)                   Output Shape              Param #
==========================================================================================
├─VisionTransformer: 1-1                 [-1, 1000]                --
|    └─PatchEmbed: 2-1                   [-1, 4, 768]              --
|    |    └─Conv2d: 3-1                  [-1, 768, 2, 2]           590,592
|    └─Dropout: 2-2                      [-1, 5, 768]              --
|    └─ModuleList: 2                     []                        --
|    |    └─Block: 3-2                   [-1, 5, 768]              7,087,872
|    |    └─Block: 3-3                   [-1, 5, 768]              7,087,872
|    |    └─Block: 3-4                   [-1, 5, 768]              7,087,872
|    |    └─Block: 3-5                   [-1, 5, 768]              7,087,872
|    |    └─Block: 3-6                   [-1, 5, 768]              7,087,872
|    |    └─Block: 3-7                   [-1, 5, 768]              7,087,872
|    |    └─Block: 3-8                   [-1, 5, 768]              7,087,872
|    |    └─Block: 3-9                   [-1, 5, 768]              7,087,872
|    |    └─Block: 3-10                  [-1, 5, 768]              7,087,872
|    |    └─Block: 3-11                  [-1, 5, 768]              7,087,872
|    |    └─Block: 3-12                  [-1, 5, 768]              7,087,872
|    |    └─Block: 3-13                  [-1, 5, 768]              7,087,872
|    └─LayerNorm: 2-3                    [-1, 5, 768]              1,536
|    └─Linear: 2-4                       [-1, 1000]                769,000
├─Linear: 1-2                            [-1, 100]                 100,100
==========================================================================================
Total params: 86,515,692
Trainable params: 86,515,692
Non-trainable params: 0
Total mult-adds (M): 260.04
==========================================================================================
Input size (MB): 0.01
Forward/backward pass size (MB): 0.76
Params size (MB): 330.03
Estimated Total Size (MB): 330.81
…
