…
wandb: Syncing run vit_s_cifar_scratch
wandb: ⭐️ View project at https://wandb.ai/video-understanding/DeIT
wandb: 🚀 View run at https://wandb.ai/video-understanding/DeIT/runs/jtoe74tx
Files already downloaded and verified
There are 48000 Train samples, and 2000 in the Dataset.
<class 'torch.utils.data.dataset.Subset'>
==========================================================================================
Layer (type:depth-idx)                   Output Shape              Param #
==========================================================================================
├─VisionTransformer: 1-1                 [-1, 1000]                --
|    └─PatchEmbed: 2-1                   [-1, 4, 384]              --
|    |    └─Conv2d: 3-1                  [-1, 384, 2, 2]           295,296
|    └─Dropout: 2-2                      [-1, 5, 384]              --
|    └─ModuleList: 2                     []                        --
|    |    └─Block: 3-2                   [-1, 5, 384]              1,774,464
|    |    └─Block: 3-3                   [-1, 5, 384]              1,774,464
|    |    └─Block: 3-4                   [-1, 5, 384]              1,774,464
|    |    └─Block: 3-5                   [-1, 5, 384]              1,774,464
|    |    └─Block: 3-6                   [-1, 5, 384]              1,774,464
|    |    └─Block: 3-7                   [-1, 5, 384]              1,774,464
|    |    └─Block: 3-8                   [-1, 5, 384]              1,774,464
|    |    └─Block: 3-9                   [-1, 5, 384]              1,774,464
|    |    └─Block: 3-10                  [-1, 5, 384]              1,774,464
|    |    └─Block: 3-11                  [-1, 5, 384]              1,774,464
|    |    └─Block: 3-12                  [-1, 5, 384]              1,774,464
|    |    └─Block: 3-13                  [-1, 5, 384]              1,774,464
|    └─LayerNorm: 2-3                    [-1, 5, 384]              768
|    └─Linear: 2-4                       [-1, 1000]                385,000
├─Linear: 1-2                            [-1, 100]                 100,100
==========================================================================================
Total params: 22,074,732
Trainable params: 22,074,732
Non-trainable params: 0
Total mult-adds (M): 66.37
==========================================================================================
Input size (MB): 0.01
Forward/backward pass size (MB): 0.39
Params size (MB): 84.21
Estimated Total Size (MB): 84.61
==========================================================================================
==========================================================================================
Layer (type:depth-idx)                   Output Shape              Param #
==========================================================================================
├─VisionTransformer: 1-1                 [-1, 1000]                --
|    └─PatchEmbed: 2-1                   [-1, 4, 384]              --
|    |    └─Conv2d: 3-1                  [-1, 384, 2, 2]           295,296
|    └─Dropout: 2-2                      [-1, 5, 384]              --
|    └─ModuleList: 2                     []                        --
|    |    └─Block: 3-2                   [-1, 5, 384]              1,774,464
|    |    └─Block: 3-3                   [-1, 5, 384]              1,774,464
|    |    └─Block: 3-4                   [-1, 5, 384]              1,774,464
|    |    └─Block: 3-5                   [-1, 5, 384]              1,774,464
|    |    └─Block: 3-6                   [-1, 5, 384]              1,774,464
|    |    └─Block: 3-7                   [-1, 5, 384]              1,774,464
|    |    └─Block: 3-8                   [-1, 5, 384]              1,774,464
|    |    └─Block: 3-9                   [-1, 5, 384]              1,774,464
|    |    └─Block: 3-10                  [-1, 5, 384]              1,774,464
|    |    └─Block: 3-11                  [-1, 5, 384]              1,774,464
|    |    └─Block: 3-12                  [-1, 5, 384]              1,774,464
|    |    └─Block: 3-13                  [-1, 5, 384]              1,774,464
|    └─LayerNorm: 2-3                    [-1, 5, 384]              768
|    └─Linear: 2-4                       [-1, 1000]                385,000
├─Linear: 1-2                            [-1, 100]                 100,100
==========================================================================================
Total params: 22,074,732
Trainable params: 22,074,732
Non-trainable params: 0
Total mult-adds (M): 66.37
==========================================================================================
Input size (MB): 0.01
Forward/backward pass size (MB): 0.39
Params size (MB): 84.21
Estimated Total Size (MB): 84.61
…
